set gpu: 0
dataset: torch.Size([3, 80, 80]) (x12000), 20
5 way 5 shot
The input image shape is: (3, 80, 80), the output shape is: torch.Size([1, 512, 5, 5])
num params: 8.0M
Jelly_ResNet12(
  (conv1): Conv2d(3, 3, kernel_size=(3, 3), stride=(1, 1), padding=(1, 1), bias=False)
  (bn1): BatchNorm2d(3, eps=1e-05, momentum=0.1, affine=True, track_running_stats=True)
  (neuron): IFNode(
    v_threshold=1.0, v_reset=0.0
    (surrogate_function): Sigmoid()
  )
  (layer1): Block(
    (conv1): Conv2d(3, 64, kernel_size=(3, 3), stride=(1, 1), padding=(1, 1), bias=False)
    (bn1): BatchNorm2d(64, eps=1e-05, momentum=0.1, affine=True, track_running_stats=True)
    (neuron1): IFNode(
      v_threshold=1.0, v_reset=0.0
      (surrogate_function): Sigmoid()
    )
    (conv2): Conv2d(64, 64, kernel_size=(3, 3), stride=(1, 1), padding=(1, 1), bias=False)
    (bn2): BatchNorm2d(64, eps=1e-05, momentum=0.1, affine=True, track_running_stats=True)
    (neuron2): IFNode(
      v_threshold=1.0, v_reset=0.0
      (surrogate_function): Sigmoid()
    )
    (conv3): Conv2d(64, 64, kernel_size=(3, 3), stride=(1, 1), padding=(1, 1), bias=False)
    (bn3): BatchNorm2d(64, eps=1e-05, momentum=0.1, affine=True, track_running_stats=True)
    (neuron3): IFNode(
      v_threshold=1.0, v_reset=0.0
      (surrogate_function): Sigmoid()
    )
    (downsample): Sequential(
      (0): Conv2d(3, 64, kernel_size=(1, 1), stride=(1, 1), bias=False)
      (1): BatchNorm2d(64, eps=1e-05, momentum=0.1, affine=True, track_running_stats=True)
    )
    (maxpool): MaxPool2d(kernel_size=2, stride=2, padding=0, dilation=1, ceil_mode=False)
  )
  (layer2): Block(
    (conv1): Conv2d(64, 128, kernel_size=(3, 3), stride=(1, 1), padding=(1, 1), bias=False)
    (bn1): BatchNorm2d(128, eps=1e-05, momentum=0.1, affine=True, track_running_stats=True)
    (neuron1): IFNode(
      v_threshold=1.0, v_reset=0.0
      (surrogate_function): Sigmoid()
    )
    (conv2): Conv2d(128, 128, kernel_size=(3, 3), stride=(1, 1), padding=(1, 1), bias=False)
    (bn2): BatchNorm2d(128, eps=1e-05, momentum=0.1, affine=True, track_running_stats=True)
    (neuron2): IFNode(
      v_threshold=1.0, v_reset=0.0
      (surrogate_function): Sigmoid()
    )
    (conv3): Conv2d(128, 128, kernel_size=(3, 3), stride=(1, 1), padding=(1, 1), bias=False)
    (bn3): BatchNorm2d(128, eps=1e-05, momentum=0.1, affine=True, track_running_stats=True)
    (neuron3): IFNode(
      v_threshold=1.0, v_reset=0.0
      (surrogate_function): Sigmoid()
    )
    (downsample): Sequential(
      (0): Conv2d(64, 128, kernel_size=(1, 1), stride=(1, 1), bias=False)
      (1): BatchNorm2d(128, eps=1e-05, momentum=0.1, affine=True, track_running_stats=True)
    )
    (maxpool): MaxPool2d(kernel_size=2, stride=2, padding=0, dilation=1, ceil_mode=False)
  )
  (layer3): Block(
    (conv1): Conv2d(128, 256, kernel_size=(3, 3), stride=(1, 1), padding=(1, 1), bias=False)
    (bn1): BatchNorm2d(256, eps=1e-05, momentum=0.1, affine=True, track_running_stats=True)
    (neuron1): IFNode(
      v_threshold=1.0, v_reset=0.0
      (surrogate_function): Sigmoid()
    )
    (conv2): Conv2d(256, 256, kernel_size=(3, 3), stride=(1, 1), padding=(1, 1), bias=False)
    (bn2): BatchNorm2d(256, eps=1e-05, momentum=0.1, affine=True, track_running_stats=True)
    (neuron2): IFNode(
      v_threshold=1.0, v_reset=0.0
      (surrogate_function): Sigmoid()
    )
    (conv3): Conv2d(256, 256, kernel_size=(3, 3), stride=(1, 1), padding=(1, 1), bias=False)
    (bn3): BatchNorm2d(256, eps=1e-05, momentum=0.1, affine=True, track_running_stats=True)
    (neuron3): IFNode(
      v_threshold=1.0, v_reset=0.0
      (surrogate_function): Sigmoid()
    )
    (downsample): Sequential(
      (0): Conv2d(128, 256, kernel_size=(1, 1), stride=(1, 1), bias=False)
      (1): BatchNorm2d(256, eps=1e-05, momentum=0.1, affine=True, track_running_stats=True)
    )
    (maxpool): MaxPool2d(kernel_size=2, stride=2, padding=0, dilation=1, ceil_mode=False)
  )
  (layer4): Block(
    (conv1): Conv2d(256, 512, kernel_size=(3, 3), stride=(1, 1), padding=(1, 1), bias=False)
    (bn1): BatchNorm2d(512, eps=1e-05, momentum=0.1, affine=True, track_running_stats=True)
    (neuron1): IFNode(
      v_threshold=1.0, v_reset=0.0
      (surrogate_function): Sigmoid()
    )
    (conv2): Conv2d(512, 512, kernel_size=(3, 3), stride=(1, 1), padding=(1, 1), bias=False)
    (bn2): BatchNorm2d(512, eps=1e-05, momentum=0.1, affine=True, track_running_stats=True)
    (neuron2): IFNode(
      v_threshold=1.0, v_reset=0.0
      (surrogate_function): Sigmoid()
    )
    (conv3): Conv2d(512, 512, kernel_size=(3, 3), stride=(1, 1), padding=(1, 1), bias=False)
    (bn3): BatchNorm2d(512, eps=1e-05, momentum=0.1, affine=True, track_running_stats=True)
    (neuron3): IFNode(
      v_threshold=1.0, v_reset=0.0
      (surrogate_function): Sigmoid()
    )
    (downsample): Sequential(
      (0): Conv2d(256, 512, kernel_size=(1, 1), stride=(1, 1), bias=False)
      (1): BatchNorm2d(512, eps=1e-05, momentum=0.1, affine=True, track_running_stats=True)
    )
    (maxpool): MaxPool2d(kernel_size=2, stride=2, padding=0, dilation=1, ceil_mode=False)
  )
  (neuron_fc): LIFNode(
    v_threshold=1.0, v_reset=0.0, tau=2.0
    (surrogate_function): Sigmoid()
  )
)
  0%|          | 0/50 [00:00<?, ?it/s]  2%|▏         | 1/50 [00:07<06:05,  7.47s/it]  4%|▍         | 2/50 [00:16<06:33, 
…
